Random seed 42 set.
(403000, 40, 40, 1)
Model: "Encoder"
__________________________________________________________________________________________________
 Layer (type)                   Output Shape         Param #     Connected to                     
==================================================================================================
 image (InputLayer)             [(None, 40, 40, 1)]  0           []                               
                                                                                                  
 conv1-0 (Conv2D)               (None, 40, 40, 10)   100         ['image[0][0]']                  
                                                                                                  
 PReLU1-0 (PReLU)               (None, 40, 40, 10)   10          ['conv1-0[0][0]']                
                                                                                                  
 avg_pool-0 (AveragePooling2D)  (None, 20, 20, 10)   0           ['PReLU1-0[0][0]']               
                                                                                                  
 conv1-1 (Conv2D)               (None, 20, 20, 5)    455         ['avg_pool-0[0][0]']             
                                                                                                  
 PReLU1-1 (PReLU)               (None, 20, 20, 5)    5           ['conv1-1[0][0]']                
                                                                                                  
 conv2-1 (Conv2D)               (None, 20, 20, 5)    230         ['PReLU1-1[0][0]']               
                                                                                                  
 PReLU2-1 (PReLU)               (None, 20, 20, 5)    5           ['conv2-1[0][0]']                
                                                                                                  
 avg_pool-1 (AveragePooling2D)  (None, 10, 10, 5)    0           ['PReLU2-1[0][0]']               
                                                                                                  
 flatten (Flatten)              (None, 500)          0           ['avg_pool-1[0][0]']             
                                                                                                  
 dense-0 (Dense)                (None, 400)          200400      ['flatten[0][0]']                
                                                                                                  
 PReLU-0 (PReLU)                (None, 400)          400         ['dense-0[0][0]']                
                                                                                                  
 dense-1 (Dense)                (None, 100)          40100       ['PReLU-0[0][0]']                
                                                                                                  
 PReLU-1 (PReLU)                (None, 100)          100         ['dense-1[0][0]']                
                                                                                                  
 z_categorical (Dense)          (None, 20)           2020        ['PReLU-1[0][0]']                
                                                                                                  
 z_mean (Dense)                 (None, 32)           3232        ['PReLU-1[0][0]']                
                                                                                                  
 z_var (Dense)                  (None, 32)           3232        ['PReLU-1[0][0]']                
                                                                                                  
==================================================================================================
Total params: 250,289
Trainable params: 250,289
Non-trainable params: 0
__________________________________________________________________________________________________
Model: "Decoder"
_________________________________________________________________
 Layer (type)                Output Shape              Param #   
=================================================================
 z (InputLayer)              [(None, 52)]              0         
                                                                 
 dense-0 (Dense)             (None, 100)               5300      
                                                                 
 PReLU-0 (PReLU)             (None, 100)               100       
                                                                 
 dense-1 (Dense)             (None, 400)               40400     
                                                                 
 PReLU-1 (PReLU)             (None, 400)               400       
                                                                 
 reshape (Reshape)           (None, 20, 20, 1)         0         
                                                                 
 conv_t1-0 (Conv2DTranspose)  (None, 40, 40, 5)        50        
                                                                 
 PReLU1-0 (PReLU)            (None, 40, 40, 5)         5         
                                                                 
 conv_2-0 (Conv2D)           (None, 40, 40, 5)         230       
                                                                 
 PReLU2-0 (PReLU)            (None, 40, 40, 5)         5         
                                                                 
 conv_t1-1 (Conv2DTranspose)  (None, 80, 80, 5)        230       
                                                                 
 PReLU1-1 (PReLU)            (None, 80, 80, 5)         5         
                                                                 
 conv_2-1 (Conv2D)           (None, 80, 80, 5)         230       
                                                                 
 PReLU2-1 (PReLU)            (None, 80, 80, 5)         5         
                                                                 
 crop (CenterCrop)           (None, 40, 40, 5)         0         
                                                                 
 conv2d (Conv2D)             (None, 40, 40, 1)         6         
                                                                 
=================================================================
Total params: 46,966
Trainable params: 46,966
Non-trainable params: 0
_________________________________________________________________
